The following modules were not unloaded:
  (Use "module --force purge" to unload all):

  1) 2023.01   2) StdEnv
NYU_v2
SceneNet(
  (backbone): Deeplab_ResNet_Backbone(
    (conv1): Conv2d(3, 64, kernel_size=(7, 7), stride=(2, 2), padding=(3, 3), bias=False)
    (bn1): BatchNorm2d(64, eps=1e-05, momentum=0.1, affine=True, track_running_stats=True)
    (relu): ReLU(inplace=True)
    (maxpool): MaxPool2d(kernel_size=3, stride=2, padding=1, dilation=1, ceil_mode=True)
    (blocks): ModuleList(
      (0): ModuleList(
        (0-2): 3 x BasicBlock(
          (conv1): Conv2d(64, 64, kernel_size=(3, 3), stride=(1, 1), padding=(1, 1), bias=False)
          (bn1): BatchNorm2d(64, eps=1e-05, momentum=0.1, affine=True, track_running_stats=True)
          (relu): ReLU(inplace=True)
          (conv2): Conv2d(64, 64, kernel_size=(3, 3), stride=(1, 1), padding=(1, 1), bias=False)
          (bn2): BatchNorm2d(64, eps=1e-05, momentum=0.1, affine=True, track_running_stats=True)
        )
      )
      (1): ModuleList(
        (0): BasicBlock(
          (conv1): Conv2d(64, 128, kernel_size=(3, 3), stride=(2, 2), padding=(1, 1), bias=False)
          (bn1): BatchNorm2d(128, eps=1e-05, momentum=0.1, affine=True, track_running_stats=True)
          (relu): ReLU(inplace=True)
          (conv2): Conv2d(128, 128, kernel_size=(3, 3), stride=(1, 1), padding=(1, 1), bias=False)
          (bn2): BatchNorm2d(128, eps=1e-05, momentum=0.1, affine=True, track_running_stats=True)
        )
        (1-3): 3 x BasicBlock(
          (conv1): Conv2d(128, 128, kernel_size=(3, 3), stride=(1, 1), padding=(1, 1), bias=False)
          (bn1): BatchNorm2d(128, eps=1e-05, momentum=0.1, affine=True, track_running_stats=True)
          (relu): ReLU(inplace=True)
          (conv2): Conv2d(128, 128, kernel_size=(3, 3), stride=(1, 1), padding=(1, 1), bias=False)
          (bn2): BatchNorm2d(128, eps=1e-05, momentum=0.1, affine=True, track_running_stats=True)
        )
      )
      (2): ModuleList(
        (0): BasicBlock(
          (conv1): Conv2d(128, 256, kernel_size=(3, 3), stride=(1, 1), padding=(2, 2), dilation=(2, 2), bias=False)
          (bn1): BatchNorm2d(256, eps=1e-05, momentum=0.1, affine=True, track_running_stats=True)
          (relu): ReLU(inplace=True)
          (conv2): Conv2d(256, 256, kernel_size=(3, 3), stride=(1, 1), padding=(2, 2), dilation=(2, 2), bias=False)
          (bn2): BatchNorm2d(256, eps=1e-05, momentum=0.1, affine=True, track_running_stats=True)
        )
        (1-5): 5 x BasicBlock(
          (conv1): Conv2d(256, 256, kernel_size=(3, 3), stride=(1, 1), padding=(2, 2), dilation=(2, 2), bias=False)
          (bn1): BatchNorm2d(256, eps=1e-05, momentum=0.1, affine=True, track_running_stats=True)
          (relu): ReLU(inplace=True)
          (conv2): Conv2d(256, 256, kernel_size=(3, 3), stride=(1, 1), padding=(2, 2), dilation=(2, 2), bias=False)
          (bn2): BatchNorm2d(256, eps=1e-05, momentum=0.1, affine=True, track_running_stats=True)
        )
      )
      (3): ModuleList(
        (0): BasicBlock(
          (conv1): Conv2d(256, 512, kernel_size=(3, 3), stride=(1, 1), padding=(4, 4), dilation=(4, 4), bias=False)
          (bn1): BatchNorm2d(512, eps=1e-05, momentum=0.1, affine=True, track_running_stats=True)
          (relu): ReLU(inplace=True)
          (conv2): Conv2d(512, 512, kernel_size=(3, 3), stride=(1, 1), padding=(4, 4), dilation=(4, 4), bias=False)
          (bn2): BatchNorm2d(512, eps=1e-05, momentum=0.1, affine=True, track_running_stats=True)
        )
        (1-2): 2 x BasicBlock(
          (conv1): Conv2d(512, 512, kernel_size=(3, 3), stride=(1, 1), padding=(4, 4), dilation=(4, 4), bias=False)
          (bn1): BatchNorm2d(512, eps=1e-05, momentum=0.1, affine=True, track_running_stats=True)
          (relu): ReLU(inplace=True)
          (conv2): Conv2d(512, 512, kernel_size=(3, 3), stride=(1, 1), padding=(4, 4), dilation=(4, 4), bias=False)
          (bn2): BatchNorm2d(512, eps=1e-05, momentum=0.1, affine=True, track_running_stats=True)
        )
      )
    )
    (ds): ModuleList(
      (0): None
      (1): Sequential(
        (0): Conv2d(64, 128, kernel_size=(1, 1), stride=(2, 2), bias=False)
        (1): BatchNorm2d(128, eps=1e-05, momentum=0.1, affine=True, track_running_stats=True)
      )
      (2): Sequential(
        (0): Conv2d(128, 256, kernel_size=(1, 1), stride=(1, 1), bias=False)
        (1): BatchNorm2d(256, eps=1e-05, momentum=0.1, affine=True, track_running_stats=True)
      )
      (3): Sequential(
        (0): Conv2d(256, 512, kernel_size=(1, 1), stride=(1, 1), bias=False)
        (1): BatchNorm2d(512, eps=1e-05, momentum=0.1, affine=True, track_running_stats=True)
      )
    )
  )
  (task1_fc1_c0): Classification_Module(
    (conv1): Conv2d(512, 1024, kernel_size=(3, 3), stride=(1, 1), padding=(6, 6), dilation=(6, 6))
    (conv2): Conv2d(1024, 1024, kernel_size=(1, 1), stride=(1, 1))
    (conv3): Conv2d(1024, 40, kernel_size=(1, 1), stride=(1, 1))
    (relu): ReLU(inplace=True)
    (dropout): Dropout(p=0.5, inplace=False)
  )
  (task1_fc1_c1): Classification_Module(
    (conv1): Conv2d(512, 1024, kernel_size=(3, 3), stride=(1, 1), padding=(12, 12), dilation=(12, 12))
    (conv2): Conv2d(1024, 1024, kernel_size=(1, 1), stride=(1, 1))
    (conv3): Conv2d(1024, 40, kernel_size=(1, 1), stride=(1, 1))
    (relu): ReLU(inplace=True)
    (dropout): Dropout(p=0.5, inplace=False)
  )
  (task1_fc1_c2): Classification_Module(
    (conv1): Conv2d(512, 1024, kernel_size=(3, 3), stride=(1, 1), padding=(18, 18), dilation=(18, 18))
    (conv2): Conv2d(1024, 1024, kernel_size=(1, 1), stride=(1, 1))
    (conv3): Conv2d(1024, 40, kernel_size=(1, 1), stride=(1, 1))
    (relu): ReLU(inplace=True)
    (dropout): Dropout(p=0.5, inplace=False)
  )
  (task1_fc1_c3): Classification_Module(
    (conv1): Conv2d(512, 1024, kernel_size=(3, 3), stride=(1, 1), padding=(24, 24), dilation=(24, 24))
    (conv2): Conv2d(1024, 1024, kernel_size=(1, 1), stride=(1, 1))
    (conv3): Conv2d(1024, 40, kernel_size=(1, 1), stride=(1, 1))
    (relu): ReLU(inplace=True)
    (dropout): Dropout(p=0.5, inplace=False)
  )
  (task2_fc1_c0): Classification_Module(
    (conv1): Conv2d(512, 1024, kernel_size=(3, 3), stride=(1, 1), padding=(6, 6), dilation=(6, 6))
    (conv2): Conv2d(1024, 1024, kernel_size=(1, 1), stride=(1, 1))
    (conv3): Conv2d(1024, 3, kernel_size=(1, 1), stride=(1, 1))
    (relu): ReLU(inplace=True)
    (dropout): Dropout(p=0.5, inplace=False)
  )
  (task2_fc1_c1): Classification_Module(
    (conv1): Conv2d(512, 1024, kernel_size=(3, 3), stride=(1, 1), padding=(12, 12), dilation=(12, 12))
    (conv2): Conv2d(1024, 1024, kernel_size=(1, 1), stride=(1, 1))
    (conv3): Conv2d(1024, 3, kernel_size=(1, 1), stride=(1, 1))
    (relu): ReLU(inplace=True)
    (dropout): Dropout(p=0.5, inplace=False)
  )
  (task2_fc1_c2): Classification_Module(
    (conv1): Conv2d(512, 1024, kernel_size=(3, 3), stride=(1, 1), padding=(18, 18), dilation=(18, 18))
    (conv2): Conv2d(1024, 1024, kernel_size=(1, 1), stride=(1, 1))
    (conv3): Conv2d(1024, 3, kernel_size=(1, 1), stride=(1, 1))
    (relu): ReLU(inplace=True)
    (dropout): Dropout(p=0.5, inplace=False)
  )
  (task2_fc1_c3): Classification_Module(
    (conv1): Conv2d(512, 1024, kernel_size=(3, 3), stride=(1, 1), padding=(24, 24), dilation=(24, 24))
    (conv2): Conv2d(1024, 1024, kernel_size=(1, 1), stride=(1, 1))
    (conv3): Conv2d(1024, 3, kernel_size=(1, 1), stride=(1, 1))
    (relu): ReLU(inplace=True)
    (dropout): Dropout(p=0.5, inplace=False)
  )
)
<class 'list'>
preds: [tensor([[[[ 4.2072e+00,  4.2948e+00,  4.0025e+00,  ...,  4.1135e+00,
            4.0078e+00,  4.0375e+00],
          [ 4.8079e+00,  4.0154e+00,  3.0359e+00,  ...,  4.8428e+00,
            4.6904e+00,  4.4912e+00],
          [ 4.8100e+00,  4.3537e+00,  2.6397e+00,  ...,  4.9384e+00,
…
